Assets/CountryAI.onnx (onnx, 290606 bytes, 8 tensors)

network_body.observation_encoder.processors.0.normalizer.running_mean f4 [13]
00000000: e10a 4bc5 a830 4045 4756 e043 a5f4 6942
00000010: fe00 2842 f2e0 2b46 b187 1c42 93ef 47c2
00000020: 393b 9bc4 b88a 6545 f201 8a44 baaa 0743
00000030: 824a 0742
-3248.68 3075.041 448.67404 58.48891 42.00097 11000.236 39.13251 -49.98396
-1241.8507 3672.67 1104.0608 135.6669 33.82276

network_body._body_endoder.seq_layers.0.weight f4 [256, 13]
00000000: 4ac2 e0bd 007c c43e 922f 033e 2a5d 56be
00000010: 16b8 d53e 28e3 3c3e 95fe a8bd bf9e 4a3f
00000020: 1fc2 213f ef31 26be e4b9 dcbe 5e67 273d
00000030: a040 f43e 63b4 fe3d ddb0 d93e a39b e13c
00000040: 12db 7bbe ceec c13e c777 a43d 56ae 4abe
00000050: 3ef0 5cbe 4ee9 84bd 5ee2 7fbe 84e2 edbe
00000060: 3c6b c0bc 001a ab3d 94b9 3f3d 274a 963e
00000070: d462 0ebd 5a82 b63e 22a7 4cbf 3560 edbd
00000080: 2b4a 84be 5ec3 90bc cac1 92be 1787 a9bb
00000090: c738 3bbe e7dc 5b3e 8688 1c3e 30d4 c43e
000000a0: 06bc 1fbf 05dd 6a3e 7ba3 173d e981 98bc
000000b0: 404b 303e 5e09 0abe 0239 67bd 7289 a5bd
000000c0: 0164 d1be c885 55bd 8cde ecbe 243b c63d
000000d0: ea98 0dbe 9aee 9abd 7aa2 d73d 500f 77be
000000e0: c284 f03e 0f16 d33e bf00 babc d712 eb3e
000000f0: 091b e83d 8698 18bf d91c 64be 03b0 6abc
00000100: 35b7 003e 2696 fe3c fab7 5d3e 07e0 ecbc
00000110: fe56 bc3d 84a2 d03e 08ba 14be 77ba b4be
00000120: 7acf 66bd 3373 ae3c 28f4 be3e 45e4 acbd
00000130: a2a0 25be d77d 3dbe a118 363e 56e0 82be
00000140: bf8b 493e 7671 993e 0d82 d43e 2614 02be
00000150: 6e14 9e3e 3a1f 67be 843c e5be af14 debe
00000160: 3c45 b0bd c1af 7e3d a0a2 383e b974 d93e
00000170: 0c2a 353d 657a b5bd 3241 94be 9e27 833c
00000180: 0d7c 843d c1d6 16bc 41f2 fbbe 37bd 433e
00000190: b31e 6ebe 3299 0d3f ea05 943e d391 b5bd
000001a0: f543 7dbd b7ee d43e 14d5 38be 6178 75be
000001b0: 746c 09bf 7217 1ebe 7570 083f c788 21bd
000001c0: 2250 90be e17a af3d 77e2 003d e5f7 853d
000001d0: 47aa c9be 1596 543b 91da c83e fe53 93bd
000001e0: 73a8 0f3e b149 d33d af76 5a3e c597 e53d
000001f0: ea4a a73e 8fc4 87bf c5b4 8a3e fe30 0b3e
00000200: 1b04 d43d 02d4 e93e 2c2e d03e 8fc8 983e
00000210: d9a1 24be 3951 d5be 54a3 fabd 2780 cc3d
00000220: 9554 92bd 4ae5 82bd e3bf 83be 0270 3abe
00000230: e7f4 89bd 43ab 083e db82 903e a60c ddbe
00000240: 76e3 3abe 5f2e a6be f470 98be 1d20 31bd
00000250: c0a7 ba3d 904b a33e 3c86 8d3a bf9f f93d
00000260: 5086 b03b 4c61 9cbe a407 d8be 6f88 093e
00000270: 3e83 c2be 2c6c 4bbe 3841 ad3d 579f 86be
00000280: 96f2 113f 35f0 2cbf 966e ec3d ef99 0a3f
00000290: 9517 fabd 0e81 00be 95bf 883e 9340 ad3e
000002a0: b4a8 e8be 22dc 9abb 6527 f5be d25e 513e
000002b0: 4718 1abf e206 8fbc 5404 f6bd d30d 993d
000002c0: 12ea ff3d 1a1a 583e f229 70be 242c 76bd
000002d0: f3c9 f53e 6dd5 21be 36cf 703e 4432 363e
000002e0: 950d 793e 0d1a f8be e817 673e 09e7 b73e
000002f0: 4138 9abe 59d4 103e 4d6c 183f 4530 3fbd
00000300: 4f74 093e 3ac9 94bd a896 49be 32dd 92bd
00000310: f67c dabe 20f6 c03e 5769 343e c4e5 3fbe
00000320: c094 d9bd 5a0d 063e d597 293e 4069 92be
00000330: bc15 90bd 776b 183e 9c39 9f3e b39d 01bf
00000340: 1522 98be c6b8 4cbe ccf1 f53d b796 36be
00000350: 5b4b 2b3e 1643 06bd 4133 eabe 17e5 06b9
00000360: 6550 43be 3d26 3cbd 2dfe 6f3d cdde f73d
00000370: b766 593e 625e a9bd 60df ffbd 87b6 14be
00000380: c899 283e ee18 6d3e a407 28bf 59ef bcbd
00000390: 9590 833d 21b4 7a3e 9fc4 593e 39fb f7be
000003a0: af33 92be f71b 79be 334e 0d3e 1cce d9bd
000003b0: d2e8 06bf 8289 18be 00c1 9f3e 133d 5d3e
000003c0: 4e34 823e 357c f9bd 40d0 70bd 6f59 73be
000003d0: d36c 81be a315 c3be dbea e83e 36c2 413e
000003e0: 5bd2 9dbd 20fa c53e c870 09be b84c 033f
000003f0: 4c32 32bf 73f8 11bd 7205 283e e0ed ac3e
-0.10974558 0.38375854 0.12811115 -0.20933977 0.4174201 0.18446028 -0.08251683 0.7914848
0.6318683 -0.16229986 -0.43110573 0.040870063 0.47705555 0.1243675 0.42517748 0.027540034
-0.24595287 0.3787598 0.08030658 -0.19793066 -0.2157602 -0.06489812 -0.24988696 -0.4646188
-0.023488633 0.083545685 0.04680784 0.2935345 -0.03476222 0.35646325 -0.79942524 -0.11590616
-0.25837836 -0.017671283 -0.28663474 -0.0051735747 -0.18283378 0.21470986 0.15286455 0.38443136
-0.62396276 0.22935875 0.03702114 -0.018616633 0.17216206 -0.13480136 -0.05645085 -0.08082856
-0.4089661 -0.052129537 -0.4626354 0.09679249 -0.13827863 -0.07565041 0.10529037 -0.24126935
0.46976286 0.41227767 -0.022705434 0.4591281 0.113332815 -0.5960773 -0.2227663 -0.014324191
0.12569888 0.031077456 0.21652213 -0.028915418 0.0919628 0.4074899 -0.1452409 -0.3529851
-0.05635021 0.021295166 0.3729565 -0.084419765 -0.16174558 -0.18505035 0.17782833 -0.2556178
0.19682215 0.29969376 0.4150547 -0.12702999 0.30874962 -0.22570506 -0.44772732 -0.43375155
-0.086069554 0.06217933 0.18030787 0.42471865 0.044229552 -0.088612355 -0.2895599 0.016010102
0.06468973 -0.009206475 -0.49208263 0.19115148 -0.23253898 0.5531188 0.28910762 -0.088657044
-0.061832387 0.41588375 -0.18050033 -0.23971702 -0.5368111 -0.15438631 0.53296596 -0.03943708
-0.28186136 0.08568359 0.031465974 0.06541423 -0.39387724 0.0032438089 0.39229253 -0.071937546
0.14029102 0.1031679 0.21334337 0.11210588 0.32674342 -1.060686 0.2709104 0.13592908
0.103523456 0.45669562 0.40660226 0.29840514 -0.16077365 -0.4166353 -0.122381836 0.099853806
-0.07145039 -0.0639139 -0.25732335 -0.1820679 -0.067361645 0.13346581 0.28224835 -0.43173712
-0.18250832 -0.32457253 -0.29773676 -0.043243516 0.09114027 0.31893587 0.0010797451 0.12188672
0.005387105 -0.30542982 -0.4219333 0.13430952 -0.37990755 -0.19865483 0.08459705 -0.26293442
0.5701078 -0.67554027 0.1154453 0.54141134 -0.12211529 -0.1254923 0.26708665 0.3383833
-0.4544121 -0.004725949 -0.47881618 0.20446327 -0.60193294 -0.017459337 -0.12012544 0.0747334
0.12495817 0.21103707 -0.23453501 -0.06010069 0.48005638 -0.15804072 0.23516545 0.17792612
0.24321587 -0.48457375 0.22567713 0.35918453 -0.30121043 0.14143504 0.59540254 -0.046676893
0.13423274 -0.072649434 -0.19686377 -0.07171096 -0.42673463 0.37687778 0.17618309 -0.18739992
-0.10624075 0.1309103 0.16561826 -0.28595924 -0.070353955 0.14884745 0.3109864 -0.50631255
-0.29713503 -0.1999236 0.1200901 -0.1783093 0.16727965 -0.032778822 -0.4574223 -0.00012864578
-0.19073637 -0.045934904 0.05859201 0.12103043 0.21230589 -0.08269955 -0.12493777 -0.14522754
0.16464913 0.23154041 -0.6563666 -0.092253394 0.06424061 0.24482776 0.21266411 -0.48433855
-0.28555056 -0.24327074 0.13799362 -0.10635015 -0.52699006 -0.14896205 0.31201935 0.21605329
0.2543053 -0.12181894 -0.058792353 -0.23764585 -0.2527834 -0.38102445 0.4549168 0.18921742
-0.07706138 0.38667393 -0.13421929 0.5128894 -0.69607997 -0.03563733 0.16408327 0.33775234

network_body._body_endoder.seq_layers.0.bias f4 [256]
00000000: 197f 223d c444 3d3d d062 6abc 9fc2 283d
00000010: 28ee 243d 3959 213d 26c3 323d 998f 523d
00000020: b7db 3b3d ff04 083d a778 f13c 8ddd 123d
00000030: f0a6 443d b050 5c3d 6c20 543d 0f6b 433d
00000040: c1d1 813c 8c94 ce3c 7c13 313d 570e 473d
00000050: 84bc 393d bf32 4a3d acc6 553d e252 a73c
00000060: 38ce 183d b8e0 f1bb bde1 123d 8b27 2a3d
00000070: 1cd4 3b3d 87e5 493d 2e0d 273d 98ae 4d3d
00000080: 995e 153d 8055 183d 1ce4 413d 2d7f 523d
00000090: fb34 1a3d 7728 35bd 1a61 3e3d 2125 213d
000000a0: 59f2 393d 9ac9 123d 97e1 2e3d dea4 2e3d
000000b0: c300 503d cb9b febc cf03 353d 762a 403d
000000c0: 273e 213d 03ae 483d a9a7 533d 0dc6 303d
000000d0: f127 823c e395 343d 9b0c 643d e652 cf3c
000000e0: 29ad 693d f7b6 d63c ef26 353d d78b 25bd
000000f0: 2ca2 46bd 0d74 353d 4cb9 32bd b782 f83c
00000100: e183 203d 33a3 323d 2a20 3e3d 6bd8 463d
00000110: 77fb 3a3d 8d88 40bd 7a42 4e3d 5e2f 4d3d
00000120: 4119 25bd e8d8 3bbd c7bb 163d 6508 513d
00000130: af0e 3f3d 6297 f63c c59f 123d f691 473d
00000140: 64f6 2c3d aa9b 113d 390f 0d3d 418f 0e3d
00000150: 22b0 173d a31a 393d b45c 0c3d c807 3a3d
00000160: 1157 393d 70df a63c 5e70 e2bc c3a2 3f3d
00000170: 454f 813c ca90 ce3c b74b 503d abdb 1ebd
00000180: 3c69 2b3d cbed 6c3d 05f2 303d 6dcf 3e3d
00000190: 9cab 0c3d e564 493d 31f8 5b3d c9d1 42bd
000001a0: 028f f23c 979c 2cbd b502 3c3d 5b1f 293d
000001b0: 39af 653d fd12 4f3d 7824 203d bd7e 2c3d
000001c0: dccd 2a3d 6185 1a3d b89d 9abc 4fb5 fbbc
000001d0: d573 553d edd2 4a3d a70d fa3c 015d 2a3d
000001e0: 8c28 4b3d 0675 413d d103 013d d480 233d
000001f0: b3eb 163d aec2 203d 48e1 453d 2daf 20bd
00000200: 87cd 3b3d 65c8 883c 49e7 cfbc a4bd 20bd
00000210: 31f4 4c3d 14bd 433d e6c3 213d 7461 2f3d
00000220: bfc7 3b3d 6280 513d ec15 b13c e3b8 493d
00000230: a35a 243d 8fac 5a3d 010a 593d feca 1f3d
00000240: 7f66 42bd 300f 4e3d 15de 4b3d 57d5 17bd
00000250: 3499 38bd da03 39bd b48f 34bd af73 ea3c
00000260: 3473 323d 114f 573d 3ef6 0c3d 85df c63c
00000270: 4201 273d caf8 3e3d 1bd1 57bd 2715 473d
00000280: aba1 f63c d224 413d 64a9 653d 5a68 10bd
00000290: 01f4 cd3c 79c0 30bb c8fb 993c 0245 403d
000002a0: 5393 f5bc b19e ec3c df12 4c3d 7f2d 2b3d
000002b0: 4bf0 02bd 403c 2f3d e154 4c3d 3806 cfbc
000002c0: a61e e7bc c520 d4bc 402d 3f3d 7a32 523d
000002d0: deb1 433d 1be4 353d f2c4 3a3d 9373 95bc
000002e0: c226 1d3d f6c7 0d3d 2698 1a3d 8129 33bd
000002f0: 7f62 3d3d dc74 1e3c 934d 343d c0bb 4b3d
00000300: 2ec6 153d fce3 623d bde4 4e3d 27f3 403d
00000310: 718f 093d d657 d13b 57db ae3c 323e 3dbd
00000320: 07af 97bc fc1a 0fbd a264 1f3d d2f9 33bd
00000330: 58d0 1b3d 19a2 33bd 7096 2ebd 486b 5c3d
00000340: 0b7b 433d 89cd 42bd e9d0 443d d5a8 293d
00000350: fc51 693d 8c34 323d 29cd 4a3d 97fb d43c
00000360: a6a2 2d3d 2cab e43c b42a 3a3d 4cf5 243d
00000370: 6e49 3bbd 5e27 36bd ab0e 3c3d 3141 383d
00000380: ddb9 01bd e947 2a3d bd38 473d 984e 323d
00000390: b26d 4f3d 4a54 313d 207d 583d 970f 9fbb
000003a0: 9ac9 1a3d e4a8 3cbd 2d49 3e3d eea0 ebbc
000003b0: e0e1 433d f26b 5c3d a0fc 3d3d f790 543d
000003c0: ff6a 393d 6625 3dbd b502 403d 902a 013d
000003d0: 0a3b 513d 4fb1 393d c75c 24bd 824a 3dbd
000003e0: b37b 243d 71a5 7cbc 7b95 233d 8285 323d
000003f0: 2193 3c3d cf7d 413d da90 643d af74 673d
0.03967199 0.046208158 -0.014305785 0.04120123 0.040266186 0.03939173 0.04364314 0.051406477
0.045863833 0.03320789 0.029476477 0.03585582 0.048010767 0.053787887 0.051788732 0.04770952
0.015847089 0.025217317 0.043231472 0.04859766 0.045345798 0.0493648 0.05219142 0.020425264
0.03730604 -0.007381525 0.035859812 0.041541617 0.04585658 0.04929116 0.040784054 0.050215334
0.03646717 0.037190914 0.047336683 0.051390816 0.037648182 -0.044228043 0.046479322 0.03934205
0.045397136 0.035836793 0.042695608 0.0426377 0.050781976 -0.031080147 0.044193085 0.046915494
0.039365914 0.048994076 0.051673565 0.043157626 0.015888186 0.044088256 0.055676084 0.025308084
0.057049904 0.026210291 0.044226583 -0.040416565 -0.048494503 0.044300128 -0.043633744 0.030335767
0.03918827 0.04361267 0.046417393 0.048546236 0.04564997 -0.047005225 0.050356366 0.050094
-0.040307287 -0.045861155 0.036800172 0.051033396 0.046644863 0.030101482 0.0357969 0.048723184
0.042227164 0.035548843 0.034438346 0.034804586 0.037033208 0.04519142 0.034268096 0.045417577
0.04524905 0.020370215 -0.027641471 0.04678608 0.015784869 0.025215525 0.050853457 -0.03878371
0.041848406 0.057843965 0.043199558 0.046584535 0.034343347 0.049168486 0.05370349 -0.047563348
0.029609207 -0.042141523 0.04590102 0.04128967 0.05607531 0.050555218 0.03909728 0.042113055
0.04170023 0.037724856 -0.018874034 -0.030726103 0.05211242 0.04951756 0.030524088 0.0415926
0.049599215 0.047230743 0.03149778 0.039917782 0.036845874 0.03924816 0.048310548 -0.03922956
0.045850303 0.016697118 -0.02537884 -0.039243355 0.050037567 0.04778774 0.039493464 0.042817548
0.04584479 0.051147826 0.021616898 0.049248587 0.0401255 0.05338722 0.052988056 0.039011948
-0.04746103 0.050307453 0.04977234 -0.03706869 -0.04506798 -0.04516969 -0.04408236 0.028619615
0.043566898 0.052565638 0.034414522 0.024276504 0.040772684 0.046623982 -0.052689653 0.048604157
0.030106386 0.047154255 0.056069747 -0.035255767 0.025140764 -0.0026970191 0.018796816 0.04694081
-0.029977476 0.028884264 0.049822684 0.041791435 -0.031967442 0.04278207 0.049885634 -0.02527152
-0.028212857 -0.025894532 0.046674013 0.05131767 0.04777705 0.04440699 0.045597978 -0.018243587
0.03836704 0.034614526 0.037742756 -0.043740753 0.04623651 0.009671416 0.044019293 0.0497396
0.036565952 0.055393204 0.05051111 0.04710689 0.033584062 0.0063886447 0.021344824 -0.046201892
-0.018516077 -0.034937844 0.03891433 -0.04393942 0.03804049 -0.04385576 -0.042623937 0.05381325
0.047724765 -0.047559295 0.048050795 0.041420776 0.056962952 0.043507144 0.049512062 0.025998874
0.04239144 0.027913652 0.04545088 0.040272996 -0.045724325 -0.044471137 0.045912426 0.044984046
-0.031671394 0.041572485 0.048638094 0.043531984 0.050641723 0.043293275 0.052853703 -0.0048541534
0.03778992 -0.046059504 0.046456505 -0.02876326 0.047822833 0.053813882 0.0463835 0.05189606
0.045268055 -0.046178244 0.04687758 0.03153473 0.051081695 0.04533511 -0.040127542 -0.046213634
0.04015703 -0.015420304 0.039937478 0.043584354 0.04603875 0.04723912 0.055802204 0.056507763

network_body._body_endoder.seq_layers.2.weight f4 [256, 256]
00000000: 661e 62bd 810f 243c bbb8 77bd f802 7ebc
00000010: 1fd7 413c f15d 783d 9463 cfbb ce23 fa3d
00000020: 5adf 6cbb b049 0bbd a224 063d 6760 cebd
00000030: 1b54 a43d 9d68 073e f3c1 093e 3534 173e
00000040: 3344 46bd 6087 e7bc 30a3 dc3c 00e1 8abc
00000050: f670 763d 441b 14bd ba09 c83d 2e71 683a
00000060: 4533 d03c 6450 e5bc 24e8 13bc b039 563d
00000070: 27fb e13d 7c20 a6bb 2b2a e03a 29ca bf3d
00000080: 457b 05be 2607 acbb 2217 8dbb 1f74 193b
00000090: 974e 7dbd 6394 36bd 29bb 643d 1c22 acbd
000000a0: 2a4d d3bc 190b 403d a30c 433d beb6 4b3c
000000b0: 0f82 913d d24c 23bc a926 aabc cfb2 643d
000000c0: bb00 b1bd 26bf 083e beee 1b3d d90d 38bd
000000d0: 8df7 df3d 5fe9 ac3d 364f 0bbd 65ef e63d
000000e0: feaa 833d 4db8 3abd 082f 353e ee1a d4ba
000000f0: c866 8bbd 543a 39bc 9057 ed3c e213 97bd
00000100: be3d 4c3d 7800 a33d 7037 9a3d fbca 11bc
00000110: 58e5 873d 74ce 883d 09fe d4bc d116 8a3c
00000120: 3444 c1bd 395b f6bd c367 b9bc 74f3 053e
00000130: 5dab ccbc 796e 903d 10b0 293d 7a41 583d
00000140: b735 803d 26ba e13c 3d0a e93c 9798 96bc
00000150: a9e1 a43d 0c25 4d3e 2af5 903d 4978 10bc
00000160: e284 b3bc e802 00bd 94c1 eabd 9efc 0abd
00000170: dcf1 3bbb bc13 ee3d 8126 753e b715 7fbd
00000180: b97c 933d 02b0 b4bc aef7 ab3b 2a09 7cbd
00000190: 5dcd 88bc 5a4a 0e3e d046 16bd 5c0f d7bd
000001a0: 340f 4e3c c50e e7bc 35c4 073d d866 963d
000001b0: 9c78 013e c998 f23d 0b66 d3bc 4784 d1bc
000001c0: c7b1 823c 1154 183d be49 043d 1648 0a3c
000001d0: 0fca bb3d 9d01 23bb 620d 0bbd 9990 f23a
000001e0: 8e54 d03a 5544 e03d d8a0 e03c f31e 953c
000001f0: 5e3c 0f3c a942 06bd e821 2a3e 2d56 1bbd
00000200: d480 983d 9472 bd3c 3ed0 15bd 52ce 79bd
00000210: 687d 903d 7769 9cbd 7ba9 783d 8e33 593d
00000220: 27c0 073d dc7e d73d bbb7 c8bd a52a a73d
00000230: 03f7 e43d f61e 79bc 23c6 843d 186b 133c
00000240: d94b bd3c 65c6 d03d f021 e13d c06c 2d3d
00000250: 2fd1 22be 9e14 f1bd f094 123d 733f a5bc
00000260: f413 1d3d 7e08 a93d 6bac ccbc c80c b33d
00000270: af76 8bbd 3b73 603d c772 68bd fae3 8dbd
00000280: 89eb f038 3ce8 643c 2145 9fbc 2241 80bd
00000290: b5d9 c6bc 571d 04be e8f8 453d da2a 3cbd
000002a0: e78b 09bc e323 e83c 62ee 4ebc b833 f93c
000002b0: cfc5 c33b 0c95 153d 036f 39bd 2824 22bd
000002c0: 0612 093d 8f52 993d 7820 923c e788 323d
000002d0: a4b4 cdbc 2ca4 c63b c8c8 bc3d 1051 343d
000002e0: 00ec 303d 2ec3 d93c 4a25 babc 6cf9 22be
000002f0: fa24 1f3e d3ea 13bd 337c ce3d f8b1 d73d
00000300: df57 90bc 5df6 d43d 99c0 f03d 53f8 823d
00000310: ac5f 04bc 531e 883d 016b ee3b afa8 99bd
00000320: 0d1f 9cbd 3ab7 a5bd d47e e73d d8d7 c7bc
00000330: 987b 9dbc c0e4 2f3d 4931 843d 55be 833d
00000340: c9d4 c2bc cab6 c5bd 56e1 153d ee39 253d
00000350: 888e bf3d 2f85 15bc 42f1 e43d 8f89 5cbd
00000360: 97c6 143d ffa8 cc3b 45b8 1f3c fe63 343e
00000370: 9864 d7bc fcad 25bd da9a 503d 94d5 203a
00000380: 73aa 38bb f41a 843c 4d1e 0fbb 44d4 ed3a
00000390: 1ef6 9a3c 1470 d73d e208 efbc f85e 64bd
000003a0: 31ee 053d 8b10 a1bd fa15 5bba 24f3 28be
000003b0: 4e89 0a3d e93e 063d 3ecc b03c 8db8 9cbb
000003c0: a652 72bd 22c6 a0bd 0d11 f63d 691e 573d
000003d0: 17ad b1bd 9d95 143e eb7a d7bd d165 12bd
000003e0: 8298 de3c e43a 233d 4132 013d 5d68 f9bd
000003f0: 5d93 7b3c d0d8 c73d 26dd a43d 34bc 893d
-0.05520477 0.010013462 -0.060478907 -0.0155036375 0.011831074 0.060636465 -0.0063290093 0.122138605
-0.003614387 -0.03400582 0.03274978 -0.10076981 0.08023854 0.132235 0.13452892 0.14766009
-0.048404884 -0.028262794 0.026933283 -0.016952991 0.06016632 -0.036158815 0.0976748 0.0008866963
0.025415072 -0.027992435 -0.009027515 0.05230111 0.11034232 -0.0050697904 0.0017102411 0.09364731
-0.13035305 -0.0052498756 -0.004305736 0.002341516 -0.061842527 -0.044575106 0.055842552 -0.08404943
-0.02579363 0.046885584 0.047619473 0.012433706 0.07104885 -0.009967046 -0.020770388 0.055834588
-0.086427175 0.13354167 0.03806948 -0.04493508 0.109358884 0.084429495 -0.03401109 0.1127613
0.064290985 -0.04558592 0.17693722 -0.0016182342 -0.06806713 -0.01130541 0.028972417 -0.07376839
0.04986357 0.07959074 0.07530105 -0.008898492 0.06635541 0.06680003 -0.02600004 0.016856583
-0.09436837 -0.12029118 -0.022632485 0.13081151 -0.024984056 0.07052321 0.041427672 0.05279682
0.06260245 0.027554583 0.028447265 -0.018383307 0.08050854 0.20033664 0.07078011 -0.008817741
-0.02191395 -0.03125277 -0.11462703 -0.03393232 -0.0028678095 0.11624858 0.2394047 -0.06227657
0.07201523 -0.022056583 0.0052480316 -0.061532177 -0.016699487 0.1389555 -0.036688626 -0.105009764
0.012576867 -0.028205285 0.033146102 0.07343835 0.12643665 0.11845548 -0.025805494 -0.02557577
0.015953911 0.037189547 0.03229689 0.008440038 0.09169399 -0.0024872788 -0.03394831 0.0018506228
0.001589434 0.10950533 0.027420446 0.018203234 0.00874242 -0.032778416 0.16614497 -0.03792398
0.07446447 0.023125924 -0.03657555 -0.060987778 0.07055169 -0.07637303 0.060708504 0.053027682
0.033142235 0.105222434 -0.09800669 0.08162431 0.11179926 -0.015205136 0.06483104 0.008997701
0.023107456 0.10194091 0.10992801 0.04234004 -0.1590011 -0.117715105 0.03578657 -0.020171857
0.038349107 0.08253573 -0.024984559 0.08742672 -0.068097465 0.054797392 -0.056750085 -0.06928249
0.00011487964 0.013971385 -0.019442143 -0.06262423 -0.024273733 -0.12901817 0.04833308 -0.045939304
-0.008395172 0.028337425 -0.012630077 0.03042017 0.0059745084 0.036519095 -0.045271885 -0.039585263
0.033464454 0.0748645 0.017837748 0.04358759 -0.02511055 0.0060620513 0.092179835 0.04402262
0.043193817 0.026582327 -0.022722859 -0.1591546 0.15541449 -0.036112618 0.10082283 0.10531992
-0.017620025 0.103985526 0.11755485 0.0639502 -0.008079451 0.06646409 0.0072759395 -0.07502877
-0.0762311 -0.08091588 0.113034874 -0.024394915 -0.019223973 0.042942762 0.06454713 0.06432787
-0.023783104 -0.09654005 0.03659185 0.04033845 0.093533576 -0.009125992 0.11178829 -0.053842124
0.036322203 0.006245732 0.009748523 0.17616269 -0.026293084 -0.040449128 0.050928928 0.0006135341
-0.0028177768 0.016126134 -0.002183813 0.0018144925 0.018916186 0.10519424 -0.02917904 -0.05575463
0.03269786 -0.078644834 -0.0008357462 -0.16499001 0.03382235 0.03277484 0.021581765 -0.0047827424
-0.05916085 -0.07850291 0.12014971 0.052519236 -0.086755924 0.14510198 -0.105214916 -0.03574163
0.02717233 0.039851084 0.031542066 -0.12178109 0.015354958 0.097581506 0.08049993 0.0672535

network_body._body_endoder.seq_layers.2.bias f4 [256]
00000000: 4d57 363d 7d50 223d de07 dcbc c908 323d
00000010: 5848 f0bc 59c8 98bc bd38 083d 8f4a 19bd
00000020: 2efe 01bd a2c0 03bd 1616 05bd 50cf 0dbd
00000030: 254f 163d 4d9c 2b3d b169 bf3c 70a7 313d
00000040: 2d90 3e3d 4f31 143d c0a4 f9bc 0df0 213d
00000050: 396d 8b3b ed00 183d 76e6 883b daf6 13bd
00000060: fec9 223d f199 8e3a eb91 273d 8724 22bd
00000070: 1700 1bbd 5e98 303d 9280 fdbc 8ef0 f23c
00000080: 8037 0dbd b3e7 013d 57e9 0f3d f5b6 9f3c
00000090: 368b f4bc fb12 f8bc bc3b 10bd 35cf 203d
000000a0: 360f 2a3d f375 083d 9791 e5bc 686c 063d
000000b0: 6440 463d 759b 0e3d e168 223d 6449 1c3d
000000c0: f947 17bd 7c62 bbbb f5bc f6bb 32a3 2b3d
000000d0: b1c2 06bd a311 31bb 55fd f93c 86da be3c
000000e0: f79e 143d 7199 0d3d 34d9 153d 6452 cebc
000000f0: 99d1 123d 9b08 00bd 78af f33c 0dfe 10bd
00000100: 51cf e73c a73e 0fbd d348 4b3d 9a5a f4bc
00000110: 5d9e 053d f8e5 323d c97a 303d eef0 293d
00000120: 8ddb 123d 0651 c83c e931 1d3d 0bb5 3f3d
00000130: 4e4d fdbc 42b0 c73c b5a3 183d d7dd 4e3d
00000140: f731 0f3d cd59 18bd b0d1 233d 8790 a7bc
00000150: 6a22 e43c 2196 3b3d 56fd 2d3d e66a 063d
00000160: a035 113d 8ce3 f9bc c2bb 383d 5d18 ddbc
00000170: d4d5 0ebd c6ca 053d 9fd1 1abd 9970 083d
00000180: 93c4 223d 2d45 c8bc 0eeb fbbb bc84 d2bc
00000190: f2ad 11bb 5256 f6bc fc88 fbbc 5cb9 d5bc
000001a0: 8082 debc c71e 253d 506b bc3b f259 3c3d
000001b0: ec9e d8bc 33a2 3d3d be3a f4bc 43d4 cd3c
000001c0: afd2 143b 9d85 443d 65d8 473c 57ba eb3c
000001d0: cb24 0cbd fc71 1f3d 1678 b3bb 35fa 353d
000001e0: 4c50 c3bb 0ca8 02bd 18fe f7bc 8c5d 19bd
000001f0: 68fe c7bc f504 083d c6ce 0d3d 5339 0f3d
00000200: facf 0f3d 13e1 1e3d bcc9 0d3d 606c dcbc
00000210: ab05 d93c eed8 f2bc e044 0e3d b264 2c3d
00000220: bb57 173c b790 a23c 4172 453d 850c 0abd
00000230: 0ff9 9ebc 2bfd 0f3d aed1 7a3c d09d 33bd
00000240: d179 17bd d7f0 183d f9fd 03bc b44f e73c
00000250: 1894 a93b 9802 003d 607b 11bd 78a5 183d
00000260: ac06 f3bc ac11 203d b08c 1dbd 5724 173d
00000270: 0604 c3bc 8cd8 f4b9 2a3a 273d ab66 3a3d
00000280: 1782 3d3d 1423 343d 97d7 213d c204 81bc
00000290: e35c f93c 9e45 eb3c c549 c33c bc22 e03c
000002a0: c73b 26bd 072e 193d d71e fabc b800 1e3d
000002b0: 2b7e 1e3d 5e25 4d3d d236 09bd 3af0 f0bc
000002c0: e4c5 15bd 50c8 2a3b 11ba 313d c8ef 0e3d
000002d0: 0357 e33c 91ba 0abd 677c 3a3d b42d 083d
000002e0: f385 1bbd e8fc 363d f193 0dbd 0bc6 fcbc
000002f0: 99cc 1fbd e481 0d3d 4a1e 0d3d bcbf 1a3d
00000300: 2c21 04bd 960d 7dbc 5ec6 e4bc 2a68 1d3d
00000310: 42b5 373d 2865 d93b 93b3 ecbc 31ff 153d
00000320: 9095 cbbc 9f9e 15bd 3d65 1e3d 598f 173d
00000330: 6727 553b cb84 8b3c abc0 3f3d e978 2d3d
00000340: 7a1d 2b3d 9e5b 0a3d 7587 083d 9542 1a3d
00000350: 9500 1c3d f163 243d c669 7d3c de2a 183d
00000360: 26a0 f0bc 3186 1f3d ba08 29bd 3753 403d
00000370: 98e2 4c3d f944 223d ef0e afbc 4e74 1dbd
00000380: 6832 26bc 3341 553c d032 2c3d 1ece 2bbb
00000390: 69e1 053d a81c 06bd 43d3 17bd c8e7 1b3d
000003a0: 5094 b03c 995a 163d 3b0f e63c f1e7 febc
000003b0: c9a0 56bb f3a9 173d 8c2c 04bd b5cf 44bb
000003c0: dc98 17bd d284 0fbd e846 263d 22cd 6f3b
000003d0: de25 463d 6edc 11bd 835f c7bc 2ad8 273d
000003e0: ac35 f0bc 3d02 0abd f4d4 f9bc 0cf0 1e3d
000003f0: 03aa 343d 493b e83c be25 253d c4f4 aa3c
0.04451685 0.03962754 -0.02685922 0.04346541 -0.029331371 -0.01865022 0.033257235 -0.03742462
-0.031736545 -0.03216613 -0.032491766 -0.034621537 0.03669657 0.041897107 0.023365827 0.04337257
0.046524215 0.036179837 -0.030474067 0.03953557 0.0042549637 0.037110258 0.0041778637 -0.036124088
0.039743416 0.0010879618 0.040910643 -0.039585616 -0.037841883 0.04311406 -0.030945096 0.029655721
-0.034476757 0.031715106 0.03513464 0.01949642 -0.029851537 -0.030282488 -0.035213217 0.039260108
0.041518413 0.03331561 -0.028023524 0.032818228 0.04840125 0.034816224 0.0396508 0.03815593
-0.036933873 -0.0057185274 -0.0075298497 0.041903682 -0.032900516 -0.002701857 0.030516306 0.02329756
0.036284413 0.03457016 0.036584094 -0.025185771 0.03584442 -0.031258207 0.029746756 -0.03539853
0.028297098 -0.03497186 0.049629997 -0.029828358 0.03262173 0.043676347 0.043085847 0.041489534
0.03585391 0.024452697 0.038377676 0.046803515 -0.03092065 0.024376038 0.0372655 0.05050453
0.03495976 -0.037195016 0.039994895 -0.020454658 0.027848441 0.04579747 0.042477928 0.03281679
0.03545153 -0.03050401 0.045100935 -0.026989156 -0.03487189 0.032664083 -0.037797567 0.033310506
0.03973825 -0.024447048 -0.007687933 -0.025698058 -0.0022228924 -0.030070458 -0.030704968 -0.026089363
-0.027161837 0.040312555 0.0057500973 0.045984216 -0.026442967 0.046297263 -0.029813167 0.025125628
0.0022708585 0.047978986 0.012197589 0.028775377 -0.034214776 0.038927063 -0.005476962 0.04442807
-0.0059605 -0.031898543 -0.030272529 -0.03744273 -0.024413303 0.033207852 0.034621023 0.034966778
0.03511045 0.038788866 0.034616217 -0.026907146 0.02649196 -0.029644456 0.034733653 0.042088218
0.009237225 0.019844396 0.048204664 -0.033703346 -0.01940587 0.03515355 0.015308781 -0.043851674
-0.036981408 0.037339058 -0.008056157 0.028236248 0.005175125 0.031252474 -0.03551805 0.03726718
-0.029666267 0.039079353 -0.03846425 0.03689989 -0.02380563 -0.00046700647 0.040826954 0.045508068
0.04626664 0.043978766 0.039512243 -0.015749339 0.0304398 0.02871972 0.023838887 0.027360313
-0.040584352 0.03739741 -0.030532284 0.038574904 0.038694542 0.050084464 -0.033499546 -0.029411424
-0.036565676 0.0026059337 0.043390337 0.034896642 0.027751451 -0.03386933 0.045528796 0.03324671
-0.03796954 0.044674784 -0.034564916 -0.030856153 -0.03901348 0.0345477 0.034452714 0.03778051
-0.032258198 -0.015445134 -0.02792662 0.038429417 0.044850595 0.006634373 -0.028894221 0.036620323
-0.02485159 -0.036528226 0.038670767 0.03700194 0.0032524706 0.017031094 0.046814602 0.042351637
0.041776158 0.03377878 0.033332307 0.037661154 0.038086493 0.040134374 0.015467113 0.037150256
-0.02937324 0.038946334 -0.041268088 0.04695436 0.050020784 0.03961656 -0.021369426 -0.038440995
-0.010143854 0.013016033 0.042040646 -0.0026215385 0.03268567 -0.032742172 -0.03706671 0.03806284
0.021555096 0.036707494 0.028083434 -0.031116458 -0.0032749644 0.03702731 -0.032269046 -0.003003103
-0.037011012 -0.035038777 0.040594965 0.0036590775 0.048375957 -0.03561061 -0.024337536 0.040977634
-0.029322468 -0.03369354 -0.030497052 0.038803145 0.04410745 0.028348582 0.040319197 0.020868666

action_model._discrete_distribution.branches.0.weight f4 [7, 256]
00000000: d649 4f3c b7bf 883c 0536 1b3c 91bf 6c3c
00000010: e556 3fbc 8435 323c abed fb3a 8cba 063b
00000020: 20c3 cabb da70 64bc 4388 41bc 7bd2 d7bb
00000030: 95d6 1b3c 01b4 a13c eff2 8bbc bdea 543b
00000040: 76e1 58ba f7cd 843c 483d abbb 6323 b93c
00000050: 47e7 103c bb2c 5a3c 7ce0 e73c 77cb e5b9
00000060: 251f 41bb 17ac 743c 0fd8 a8bb 7155 d6bc
00000070: a70d 0abb 5bd7 91bb ae5d 41bc d176 85bc
00000080: d399 88bb bb41 a13b 73e9 193c 3da6 9a3b
00000090: aacf c0b9 1c66 ab3b 268b 0b3c 0a33 513c
000000a0: bcf4 7dbc 3480 363c a45a 3d3c b8c1 203c
000000b0: 0fd9 a43a 9def c93b 6c4a 6f3a 4db0 98ba
000000c0: 35f4 f6bb ded3 f83a c09b b5bb 798c 923c
000000d0: 5db8 b6ba 4183 c8bc 927f 673c cc3f cbbc
000000e0: 90ea 213a f7aa 8dbc 6103 d03c 19e5 713b
000000f0: e06d 1e3c 47ee 22bc f8c9 21bc 4c76 5bbb
00000100: 5945 27bc a8de 903b 99cc 5f3b e07f 9f3b
00000110: e5c5 353c a54b 2d3c 8d9e 133c 1387 c1bb
00000120: 6607 9b3c 3a0b 90bc c4cb d63c 48dc 0e3c
00000130: c40c f13b 7692 0c3b cd04 0dbc e53b 943c
00000140: b1f7 e93c b731 0a3c 65a0 433c 2d9b 403c
00000150: 1296 0cbc cb57 e23b b017 043b 682c 4e3b
00000160: b098 ad3b 8a66 dfba abdd a23c ac8b e9bb
00000170: 33e6 3ab9 94dc bd3b 5bfa 843a 67c0 523b
00000180: 91b8 a9bb fd46 13bc 7d9e fa3b 0a69 e33a
00000190: 3146 8a3c 4cab 673c 6782 04bb aff9 0139
000001a0: ec59 f3bb 5dd1 3c3c 45e5 e5ba 1443 2bbc
000001b0: 1089 9e3b d21c 863b 8263 d43a aa45 603a
000001c0: c5f3 893c ec69 063c ae2a 6a3c 2ca5 f6bb
000001d0: 9362 80bb 83be f83b bd08 9d3c a0b5 12bb
000001e0: 0a53 0bba 6acc 4bbc 17e0 943a 5290 2dbb
000001f0: ae49 c33c db73 bcb9 4ec3 bd3b 2955 8a3c
00000200: 99b9 053c a484 d1bb eeea 483c 0f14 0b3c
00000210: 13de b8bc 13da 71bc 35db 60bc 7a26 493c
00000220: 1a07 b53c 7ded eebb 099e 7a3c 664e ecba
00000230: b19b 833b 8bf0 cb3b 3d75 a4bb 23bd a2bc
00000240: cf0c 053c d22e 423a 9955 813c c658 1e3c
00000250: 2dad 8c3c 538a c1bc e0df 383a bea6 0e3c
00000260: 337c 663c 95be c83a 6a18 243c a74b 903c
00000270: 3334 9a3b 29ac b03a 87a2 5c3c 3854 953c
00000280: c465 1d3b c68c 3739 e702 003c a6c4 cd3c
00000290: 8e6f 123c 71b7 04bd 417b 58bb 36d9 8f3c
000002a0: 629a 983a 6553 d43b 65d4 b43b ff71 473c
000002b0: 6d33 2cbc 4633 e43b bfdb 6e3b e102 e03c
000002c0: eda5 eabb 41ec d4bb 942a ac3c 8cec 85bb
000002d0: c371 023c 4880 913c 455e 313b ed82 16bb
000002e0: 3b4c bcba 4317 bd3b f84c 363c 99b2 843b
000002f0: f980 af3b ebb6 733c 9fd8 ba3b c179 4e3c
00000300: 625a cbbb c074 523c 004c 84bc 3646 bebc
00000310: bf08 a83c bec4 01bc c065 a3bb a180 173c
00000320: ddd0 5bbb f715 cbb9 f8bb 0b3c 90c8 0f3c
00000330: 4692 39bc 2dd1 98bb 811f 6d3c 0f2b c33c
00000340: 7e5b 5e3b 842a e9bb a1e3 9d3b 88a5 5f3b
00000350: ac0c 90b8 d62f 593c 6660 073c 62b4 a43a
00000360: 8c52 5a3c 635c fd3b 7201 e23b 31e4 86bc
00000370: 2765 c739 ec62 5bbb fd43 05bc 64ee bbbb
00000380: ce1f a03a 77b5 5c3b 0e98 cabc fa46 1f3c
00000390: 2408 e6ba 28ff 573c e12b 813b 2396 323b
000003a0: 8d3b 43bc c19d 723c 7a3a 6539 9fda d03b
000003b0: e20f 0a3b d829 a0bc 5b3e 62bb 2791 2a3c
000003c0: 16ba 7d3a d0e9 3dbc ad30 3ebc bb32 14bc
000003d0: e9a6 2a3c 6b59 66bb dc17 883c bebe b53c
000003e0: 0a24 983c 3101 54bc d740 073c b7a1 d63b
000003f0: 56d1 9238 b350 1fbc 2415 9e3c 8cfc 67bc
0.012651881 0.01669298 0.0094733285 0.01444997 -0.011678432 0.010877017 0.0019220611 0.0020557968
-0.0061878115 -0.0139429215 -0.0118122725 -0.0065863705 0.00951161 0.019739153 -0.017083613 0.0032488548
-0.00082733424 0.016211493 -0.005225811 0.022599882 0.008844203 0.013316329 0.028305285 -0.00043829877
-0.0029468026 0.014933608 -0.0051527093 -0.026163789 -0.0021065266 -0.004450721 -0.01180212 -0.016292008
-0.004168728 0.0049211658 0.009394038 0.004719524 -0.00036775816 0.0052306782 0.008517062 0.012768516
-0.015500244 0.011138964 0.011557255 0.009811811 0.0012576896 0.0061625973 0.0009128216 -0.0011649221
-0.007536436 0.001898404 -0.0055422485 0.017889248 -0.0013940443 -0.02447665 0.014129536 -0.024810694
0.0006176615 -0.017293436 0.025392236 0.0036910234 0.009669751 -0.009944505 -0.009874813 -0.0033487258
-0.010209405 0.004421074 0.003414905 0.004867539 0.011094545 0.010577117 0.009009969 -0.0059059947
0.018924426 -0.017583478 0.02622021 0.008719511 0.007356258 0.0021449602 -0.008607102 0.018094966
0.028560491 0.0084347045 0.0119400965 0.011755747 -0.008580701 0.0069074384 0.002015572 0.0031459574
0.005297743 -0.0017044109 0.01988109 -0.007127246 -0.00017824098 0.005794117 0.0010145413 0.0032158138
-0.0051794727 -0.008989093 0.007648288 0.001735003 0.016879173 0.014139961 -0.0020219327 0.00012395413
-0.007426491 0.0115245255 -0.0017539641 -0.010453004 0.0048381165 0.004092791 0.0016203972 0.00085553026
0.016839871 0.008203965 0.014292402 -0.0075270142 -0.003918001 0.00759107 0.019169206 -0.002238609
-0.0005314803 -0.012438873 0.0011358288 -0.0026483727 0.023838844 -0.00035944473 0.0057911044 0.01688631
0.008161926 -0.006393986 0.012263043 0.008488669 -0.02256683 -0.014761466 -0.013724138 0.01227724
0.022098113 -0.0072914944 0.015296468 -0.0018028736 0.0040163626 0.0062237433 -0.0050188587 -0.019865578
0.00812073 0.00074074895 0.015787886 0.00966472 0.01717242 -0.023625528 0.0007052403 0.008706747
0.014067697 0.0015315587 0.010015586 0.017614199 0.0047059297 0.0013479042 0.013466484 0.018228635
0.0024016956 0.00017504682 0.007813192 0.025118183 0.0089377295 -0.032401506 -0.003303245 0.017559629
0.0011642689 0.006479668 0.0055184835 0.012173175 -0.010510308 0.00696412 0.0036446897 0.027345123
-0.007160893 -0.00649789 0.021016397 -0.0040870365 0.007961693 0.017761365 0.0027064246 -0.0022966221
-0.001436598 0.0057705953 0.011126749 0.004049611 0.005355951 0.014875154 0.005702093 0.012602271
-0.006205843 0.012845218 -0.01614952 -0.023226839 0.020511983 -0.007920442 -0.004986495 0.009246976
-0.003354124 -0.00038735542 0.008528702 0.008775845 -0.011326378 -0.0046636076 0.014472843 0.023824243
0.0033929045 -0.007115664 0.0048183952 0.0034125764 -6.8688154e-05 0.013256034 0.008262729 0.0012565965
0.013325345 0.0077319606 0.006897145 -0.016466232 0.00038031602 -0.003347571 -0.008133885 -0.0057352055
0.001221651 0.0033677497 -0.024730708 0.009721512 -0.0017550034 0.013183393 0.0039419984 0.0027250133
-0.0119160535 0.014808119 0.00021860926 0.006373718 0.0021066596 -0.019551203 -0.003452203 0.010410584
0.0009678913 -0.01159139 -0.011608285 -0.009045298 0.010415771 -0.0035148512 0.01661294 0.02218568
0.018571872 -0.012939737 0.008255205 0.0065500396 7.0008144e-05 -0.00972383 0.01929719 -0.014159333

action_model._discrete_distribution.branches.0.bias f4 [7]
00000000: 6d04 a33b 0b6a b43c cb78 fabb a0bd 003c
00000010: 4fa6 643c 2563 cbbc 1d75 d63c
0.004974893 0.022023221 -0.007643794 0.00785771 0.013955667 -0.02482755 0.02617889

onnx::Div_52 f4 [13]
00000000: 6e3a 6f45 f06e a044 38fa 4344 6445 0c43
00000010: e4f1 1241 60b6 e444 6bbd 6641 2bc6 473f
00000020: 4be2 ad44 981e d944 c69e fd42 0deb 4242
00000030: 91ff 9241
3827.6519 1283.4668 783.90967 140.27106 9.184055 1829.6992 14.421245 0.78036755
1391.0717 1736.956 126.810104 48.72954 18.374788
